fn (%input: Tensor[(1, 3, 128, 128), int8], %v0_weight: Tensor[(16, 3, 3, 3), int8], %v0_bias: Tensor[(16), int32], %v0_zero_x: Tensor[(1), int8], %v0_zero_y: Tensor[(1), int8], %v0_scale: Tensor[(16), float32], %v1_conv_0_weight: Tensor[(16, 1, 3, 3), int8], %v1_conv_0_bias: Tensor[(16), int32], %v1_conv_0_zero_x: Tensor[(1), int8], %v1_conv_0_zero_y: Tensor[(1), int8], %v1_conv_0_scale: Tensor[(16), float32], %v1_conv_1_weight: Tensor[(8, 16, 1, 1), int8], %v1_conv_1_bias: Tensor[(8), int32], %v1_conv_1_zero_x: Tensor[(1), int8], %v1_conv_1_zero_y: Tensor[(1), int8], %v1_conv_1_scale: Tensor[(8), float32], %v2_conv_0_weight: Tensor[(32, 8, 1, 1), int8], %v2_conv_0_bias: Tensor[(32), int32], %v2_conv_0_zero_x: Tensor[(1), int8], %v2_conv_0_zero_y: Tensor[(1), int8], %v2_conv_0_scale: Tensor[(32), float32], %v2_conv_1_weight: Tensor[(32, 1, 3, 3), int8], %v2_conv_1_bias: Tensor[(32), int32], %v2_conv_1_zero_x: Tensor[(1), int8], %v2_conv_1_zero_y: Tensor[(1), int8], %v2_conv_1_scale: Tensor[(32), float32], %v2_conv_2_weight: Tensor[(16, 32, 1, 1), int8], %v2_conv_2_bias: Tensor[(16), int32], %v2_conv_2_zero_x: Tensor[(1), int8], %v2_conv_2_zero_y: Tensor[(1), int8], %v2_conv_2_scale: Tensor[(16), float32], %v3_conv_0_weight: Tensor[(48, 16, 1, 1), int8], %v3_conv_0_bias: Tensor[(48), int32], %v3_conv_0_zero_x: Tensor[(1), int8], %v3_conv_0_zero_y: Tensor[(1), int8], %v3_conv_0_scale: Tensor[(48), float32], %v3_conv_1_weight: Tensor[(48, 1, 3, 3), int8], %v3_conv_1_bias: Tensor[(48), int32], %v3_conv_1_zero_x: Tensor[(1), int8], %v3_conv_1_zero_y: Tensor[(1), int8], %v3_conv_1_scale: Tensor[(48), float32], %v3_conv_2_weight: Tensor[(16, 48, 1, 1), int8], %v3_conv_2_bias: Tensor[(16), int32], %v3_conv_2_zero_x: Tensor[(1), int8], %v3_conv_2_zero_y: Tensor[(1), int8], %v3_conv_2_scale: Tensor[(16), float32], %v3_qadd_zero_x1: Tensor[(1), int8], %v3_qadd_zero_x2: Tensor[(1), int8], %v3_qadd_scale_x1: Tensor[(1), float32], %v3_qadd_scale_x2: Tensor[(1), float32], %v3_qadd_zero_y: Tensor[(1), int8], %v3_qadd_scale_y: Tensor[(1), float32], %v4_conv_0_weight: Tensor[(48, 16, 1, 1), int8], %v4_conv_0_bias: Tensor[(48), int32], %v4_conv_0_zero_x: Tensor[(1), int8], %v4_conv_0_zero_y: Tensor[(1), int8], %v4_conv_0_scale: Tensor[(48), float32], %v4_conv_1_weight: Tensor[(48, 1, 7, 7), int8], %v4_conv_1_bias: Tensor[(48), int32], %v4_conv_1_zero_x: Tensor[(1), int8], %v4_conv_1_zero_y: Tensor[(1), int8], %v4_conv_1_scale: Tensor[(48), float32], %v4_conv_2_weight: Tensor[(24, 48, 1, 1), int8], %v4_conv_2_bias: Tensor[(24), int32], %v4_conv_2_zero_x: Tensor[(1), int8], %v4_conv_2_zero_y: Tensor[(1), int8], %v4_conv_2_scale: Tensor[(24), float32], %v5_conv_0_weight: Tensor[(120, 24, 1, 1), int8], %v5_conv_0_bias: Tensor[(120), int32], %v5_conv_0_zero_x: Tensor[(1), int8], %v5_conv_0_zero_y: Tensor[(1), int8], %v5_conv_0_scale: Tensor[(120), float32], %v5_conv_1_weight: Tensor[(120, 1, 3, 3), int8], %v5_conv_1_bias: Tensor[(120), int32], %v5_conv_1_zero_x: Tensor[(1), int8], %v5_conv_1_zero_y: Tensor[(1), int8], %v5_conv_1_scale: Tensor[(120), float32], %v5_conv_2_weight: Tensor[(24, 120, 1, 1), int8], %v5_conv_2_bias: Tensor[(24), int32], %v5_conv_2_zero_x: Tensor[(1), int8], %v5_conv_2_zero_y: Tensor[(1), int8], %v5_conv_2_scale: Tensor[(24), float32], %v5_qadd_zero_x1: Tensor[(1), int8], %v5_qadd_zero_x2: Tensor[(1), int8], %v5_qadd_scale_x1: Tensor[(1), float32], %v5_qadd_scale_x2: Tensor[(1), float32], %v5_qadd_zero_y: Tensor[(1), int8], %v5_qadd_scale_y: Tensor[(1), float32], %v6_conv_0_weight: Tensor[(120, 24, 1, 1), int8], %v6_conv_0_bias: Tensor[(120), int32], %v6_conv_0_zero_x: Tensor[(1), int8], %v6_conv_0_zero_y: Tensor[(1), int8], %v6_conv_0_scale: Tensor[(120), float32], %v6_conv_1_weight: Tensor[(120, 1, 3, 3), int8], %v6_conv_1_bias: Tensor[(120), int32], %v6_conv_1_zero_x: Tensor[(1), int8], %v6_conv_1_zero_y: Tensor[(1), int8], %v6_conv_1_scale: Tensor[(120), float32], %v6_conv_2_weight: Tensor[(40, 120, 1, 1), int8], %v6_conv_2_bias: Tensor[(40), int32], %v6_conv_2_zero_x: Tensor[(1), int8], %v6_conv_2_zero_y: Tensor[(1), int8], %v6_conv_2_scale: Tensor[(40), float32], %v7_conv_0_weight: Tensor[(160, 40, 1, 1), int8], %v7_conv_0_bias: Tensor[(160), int32], %v7_conv_0_zero_x: Tensor[(1), int8], %v7_conv_0_zero_y: Tensor[(1), int8], %v7_conv_0_scale: Tensor[(160), float32], %v7_conv_1_weight: Tensor[(160, 1, 7, 7), int8], %v7_conv_1_bias: Tensor[(160), int32], %v7_conv_1_zero_x: Tensor[(1), int8], %v7_conv_1_zero_y: Tensor[(1), int8], %v7_conv_1_scale: Tensor[(160), float32], %v7_conv_2_weight: Tensor[(40, 160, 1, 1), int8], %v7_conv_2_bias: Tensor[(40), int32], %v7_conv_2_zero_x: Tensor[(1), int8], %v7_conv_2_zero_y: Tensor[(1), int8], %v7_conv_2_scale: Tensor[(40), float32], %v7_qadd_zero_x1: Tensor[(1), int8], %v7_qadd_zero_x2: Tensor[(1), int8], %v7_qadd_scale_x1: Tensor[(1), float32], %v7_qadd_scale_x2: Tensor[(1), float32], %v7_qadd_zero_y: Tensor[(1), int8], %v7_qadd_scale_y: Tensor[(1), float32], %v8_conv_0_weight: Tensor[(160, 40, 1, 1), int8], %v8_conv_0_bias: Tensor[(160), int32], %v8_conv_0_zero_x: Tensor[(1), int8], %v8_conv_0_zero_y: Tensor[(1), int8], %v8_conv_0_scale: Tensor[(160), float32], %v8_conv_1_weight: Tensor[(160, 1, 5, 5), int8], %v8_conv_1_bias: Tensor[(160), int32], %v8_conv_1_zero_x: Tensor[(1), int8], %v8_conv_1_zero_y: Tensor[(1), int8], %v8_conv_1_scale: Tensor[(160), float32], %v8_conv_2_weight: Tensor[(48, 160, 1, 1), int8], %v8_conv_2_bias: Tensor[(48), int32], %v8_conv_2_zero_x: Tensor[(1), int8], %v8_conv_2_zero_y: Tensor[(1), int8], %v8_conv_2_scale: Tensor[(48), float32], %v9_conv_0_weight: Tensor[(144, 48, 1, 1), int8], %v9_conv_0_bias: Tensor[(144), int32], %v9_conv_0_zero_x: Tensor[(1), int8], %v9_conv_0_zero_y: Tensor[(1), int8], %v9_conv_0_scale: Tensor[(144), float32], %v9_conv_1_weight: Tensor[(144, 1, 3, 3), int8], %v9_conv_1_bias: Tensor[(144), int32], %v9_conv_1_zero_x: Tensor[(1), int8], %v9_conv_1_zero_y: Tensor[(1), int8], %v9_conv_1_scale: Tensor[(144), float32], %v9_conv_2_weight: Tensor[(48, 144, 1, 1), int8], %v9_conv_2_bias: Tensor[(48), int32], %v9_conv_2_zero_x: Tensor[(1), int8], %v9_conv_2_zero_y: Tensor[(1), int8], %v9_conv_2_scale: Tensor[(48), float32], %v9_qadd_zero_x1: Tensor[(1), int8], %v9_qadd_zero_x2: Tensor[(1), int8], %v9_qadd_scale_x1: Tensor[(1), float32], %v9_qadd_scale_x2: Tensor[(1), float32], %v9_qadd_zero_y: Tensor[(1), int8], %v9_qadd_scale_y: Tensor[(1), float32], %v10_conv_0_weight: Tensor[(192, 48, 1, 1), int8], %v10_conv_0_bias: Tensor[(192), int32], %v10_conv_0_zero_x: Tensor[(1), int8], %v10_conv_0_zero_y: Tensor[(1), int8], %v10_conv_0_scale: Tensor[(192), float32], %v10_conv_1_weight: Tensor[(192, 1, 3, 3), int8], %v10_conv_1_bias: Tensor[(192), int32], %v10_conv_1_zero_x: Tensor[(1), int8], %v10_conv_1_zero_y: Tensor[(1), int8], %v10_conv_1_scale: Tensor[(192), float32], %v10_conv_2_weight: Tensor[(48, 192, 1, 1), int8], %v10_conv_2_bias: Tensor[(48), int32], %v10_conv_2_zero_x: Tensor[(1), int8], %v10_conv_2_zero_y: Tensor[(1), int8], %v10_conv_2_scale: Tensor[(48), float32], %v10_qadd_zero_x1: Tensor[(1), int8], %v10_qadd_zero_x2: Tensor[(1), int8], %v10_qadd_scale_x1: Tensor[(1), float32], %v10_qadd_scale_x2: Tensor[(1), float32], %v10_qadd_zero_y: Tensor[(1), int8], %v10_qadd_scale_y: Tensor[(1), float32], %v11_conv_0_weight: Tensor[(240, 48, 1, 1), int8], %v11_conv_0_bias: Tensor[(240), int32], %v11_conv_0_zero_x: Tensor[(1), int8], %v11_conv_0_zero_y: Tensor[(1), int8], %v11_conv_0_scale: Tensor[(240), float32], %v11_conv_1_weight: Tensor[(240, 1, 7, 7), int8], %v11_conv_1_bias: Tensor[(240), int32], %v11_conv_1_zero_x: Tensor[(1), int8], %v11_conv_1_zero_y: Tensor[(1), int8], %v11_conv_1_scale: Tensor[(240), float32], %v11_conv_2_weight: Tensor[(96, 240, 1, 1), int8], %v11_conv_2_bias: Tensor[(96), int32], %v11_conv_2_zero_x: Tensor[(1), int8], %v11_conv_2_zero_y: Tensor[(1), int8], %v11_conv_2_scale: Tensor[(96), float32], %v12_conv_0_weight: Tensor[(384, 96, 1, 1), int8], %v12_conv_0_bias: Tensor[(384), int32], %v12_conv_0_zero_x: Tensor[(1), int8], %v12_conv_0_zero_y: Tensor[(1), int8], %v12_conv_0_scale: Tensor[(384), float32], %v12_conv_1_weight: Tensor[(384, 1, 5, 5), int8], %v12_conv_1_bias: Tensor[(384), int32], %v12_conv_1_zero_x: Tensor[(1), int8], %v12_conv_1_zero_y: Tensor[(1), int8], %v12_conv_1_scale: Tensor[(384), float32], %v12_conv_2_weight: Tensor[(96, 384, 1, 1), int8], %v12_conv_2_bias: Tensor[(96), int32], %v12_conv_2_zero_x: Tensor[(1), int8], %v12_conv_2_zero_y: Tensor[(1), int8], %v12_conv_2_scale: Tensor[(96), float32], %v12_qadd_zero_x1: Tensor[(1), int8], %v12_qadd_zero_x2: Tensor[(1), int8], %v12_qadd_scale_x1: Tensor[(1), float32], %v12_qadd_scale_x2: Tensor[(1), float32], %v12_qadd_zero_y: Tensor[(1), int8], %v12_qadd_scale_y: Tensor[(1), float32], %v13_conv_0_weight: Tensor[(384, 96, 1, 1), int8], %v13_conv_0_bias: Tensor[(384), int32], %v13_conv_0_zero_x: Tensor[(1), int8], %v13_conv_0_zero_y: Tensor[(1), int8], %v13_conv_0_scale: Tensor[(384), float32], %v13_conv_1_weight: Tensor[(384, 1, 5, 5), int8], %v13_conv_1_bias: Tensor[(384), int32], %v13_conv_1_zero_x: Tensor[(1), int8], %v13_conv_1_zero_y: Tensor[(1), int8], %v13_conv_1_scale: Tensor[(384), float32], %v13_conv_2_weight: Tensor[(96, 384, 1, 1), int8], %v13_conv_2_bias: Tensor[(96), int32], %v13_conv_2_zero_x: Tensor[(1), int8], %v13_conv_2_zero_y: Tensor[(1), int8], %v13_conv_2_scale: Tensor[(96), float32], %v13_qadd_zero_x1: Tensor[(1), int8], %v13_qadd_zero_x2: Tensor[(1), int8], %v13_qadd_scale_x1: Tensor[(1), float32], %v13_qadd_scale_x2: Tensor[(1), float32], %v13_qadd_zero_y: Tensor[(1), int8], %v13_qadd_scale_y: Tensor[(1), float32], %v14_conv_0_weight: Tensor[(576, 96, 1, 1), int8], %v14_conv_0_bias: Tensor[(576), int32], %v14_conv_0_zero_x: Tensor[(1), int8], %v14_conv_0_zero_y: Tensor[(1), int8], %v14_conv_0_scale: Tensor[(576), float32], %v14_conv_1_weight: Tensor[(576, 1, 3, 3), int8], %v14_conv_1_bias: Tensor[(576), int32], %v14_conv_1_zero_x: Tensor[(1), int8], %v14_conv_1_zero_y: Tensor[(1), int8], %v14_conv_1_scale: Tensor[(576), float32], %v14_conv_2_weight: Tensor[(160, 576, 1, 1), int8], %v14_conv_2_bias: Tensor[(160), int32], %v14_conv_2_zero_x: Tensor[(1), int8], %v14_conv_2_zero_y: Tensor[(1), int8], %v14_conv_2_scale: Tensor[(160), float32], %v15_weight: Tensor[(10, 160, 1, 1), int8], %v15_bias: Tensor[(10), int32], %v15_zero_x: Tensor[(1), int8], %v15_zero_y: Tensor[(1), int8], %v15_scale: Tensor[(10), float32], %label: Tensor[(1, 10), float32]) -> (float32, Tensor[(10), float32], Tensor[(10, 160, 1, 1), float32], Tensor[(160), float32], Tensor[(576), float32], Tensor[(576), float32], Tensor[(576, 48, 1, 1), float32], Tensor[(96), float32], Tensor[(384), float32], Tensor[(384), float32], Tensor[(384, 96, 1, 1), float32], Tensor[(96), float32], Tensor[(384), float32], Tensor[(384), float32], Tensor[(96), float32], Tensor[(240), float32], Tensor[(240), float32], Tensor[(240, 48, 1, 1), float32], Tensor[(48), float32], Tensor[(192), float32], Tensor[(192), float32], Tensor[(192, 48, 1, 1), float32], Tensor[(48), float32], Tensor[(144), float32], Tensor[(144), float32], Tensor[(144, 48, 1, 1), float32], Tensor[(48), float32], Tensor[(160), float32], Tensor[(160), float32], Tensor[(160, 40, 1, 1), float32], Tensor[(40), float32], Tensor[(160), float32]) {
  %0 = nn.mcuconv2d(%input, %v0_weight, %v0_bias, %v0_zero_x, %v0_zero_y, %v0_scale, strides=[2, 2], padding=[1, 1, 1, 1]) /* from_string */ /* ty=Tensor[(1, 16, 64, 64), int32] */;
  %1 = nn.mcutruncate(%0) /* from_string */ /* ty=Tensor[(1, 16, 64, 64), int8] */;
  %2 = nn.mcuconv2d(%1, %v1_conv_0_weight, %v1_conv_0_bias, %v1_conv_0_zero_x, %v1_conv_0_zero_y, %v1_conv_0_scale, padding=[1, 1, 1, 1], groups=16) /* from_string */ /* ty=Tensor[(1, 16, 64, 64), int32] */;
  %3 = nn.mcutruncate(%2) /* from_string */ /* ty=Tensor[(1, 16, 64, 64), int8] */;
  %4 = nn.mcuconv2d(%3, %v1_conv_1_weight, %v1_conv_1_bias, %v1_conv_1_zero_x, %v1_conv_1_zero_y, %v1_conv_1_scale, padding=[0, 0, 0, 0]) /* from_string */ /* ty=Tensor[(1, 8, 64, 64), int32] */;
  %5 = nn.mcutruncate(%4) /* from_string */ /* ty=Tensor[(1, 8, 64, 64), int8] */;
  %6 = nn.mcuconv2d(%5, %v2_conv_0_weight, %v2_conv_0_bias, %v2_conv_0_zero_x, %v2_conv_0_zero_y, %v2_conv_0_scale, padding=[0, 0, 0, 0]) /* from_string */ /* ty=Tensor[(1, 32, 64, 64), int32] */;
  %7 = nn.mcutruncate(%6) /* from_string */ /* ty=Tensor[(1, 32, 64, 64), int8] */;
  %8 = nn.mcuconv2d(%7, %v2_conv_1_weight, %v2_conv_1_bias, %v2_conv_1_zero_x, %v2_conv_1_zero_y, %v2_conv_1_scale, strides=[2, 2], padding=[1, 1, 1, 1], groups=32) /* from_string */ /* ty=Tensor[(1, 32, 32, 32), int32] */;
  %9 = nn.mcutruncate(%8) /* from_string */ /* ty=Tensor[(1, 32, 32, 32), int8] */;
  %10 = nn.mcuconv2d(%9, %v2_conv_2_weight, %v2_conv_2_bias, %v2_conv_2_zero_x, %v2_conv_2_zero_y, %v2_conv_2_scale, padding=[0, 0, 0, 0]) /* from_string */ /* ty=Tensor[(1, 16, 32, 32), int32] */;
  %11 = nn.mcutruncate(%10) /* from_string */ /* ty=Tensor[(1, 16, 32, 32), int8] */;
  %12 = nn.mcuconv2d(%11, %v3_conv_0_weight, %v3_conv_0_bias, %v3_conv_0_zero_x, %v3_conv_0_zero_y, %v3_conv_0_scale, padding=[0, 0, 0, 0]) /* from_string */ /* ty=Tensor[(1, 48, 32, 32), int32] */;
  %13 = nn.mcutruncate(%12) /* from_string */ /* ty=Tensor[(1, 48, 32, 32), int8] */;
  %14 = nn.mcuconv2d(%13, %v3_conv_1_weight, %v3_conv_1_bias, %v3_conv_1_zero_x, %v3_conv_1_zero_y, %v3_conv_1_scale, padding=[1, 1, 1, 1], groups=48) /* from_string */ /* ty=Tensor[(1, 48, 32, 32), int32] */;
  %15 = nn.mcutruncate(%14) /* from_string */ /* ty=Tensor[(1, 48, 32, 32), int8] */;
  %16 = nn.mcuconv2d(%15, %v3_conv_2_weight, %v3_conv_2_bias, %v3_conv_2_zero_x, %v3_conv_2_zero_y, %v3_conv_2_scale, padding=[0, 0, 0, 0]) /* from_string */ /* ty=Tensor[(1, 16, 32, 32), int32] */;
  %17 = nn.mcutruncate(%16) /* from_string */ /* ty=Tensor[(1, 16, 32, 32), int8] */;
  %18 = nn.mcuadd(%11, %17, %v3_qadd_zero_x1, %v3_qadd_zero_x2, %v3_qadd_scale_x1, %v3_qadd_scale_x2, %v3_qadd_zero_y, %v3_qadd_scale_y, axis=0) /* from_string */ /* ty=Tensor[(1, 16, 32, 32), int8] */;
  %19 = nn.mcutruncate(%18) /* from_string */ /* ty=Tensor[(1, 16, 32, 32), int8] */;
  %20 = nn.mcuconv2d(%19, %v4_conv_0_weight, %v4_conv_0_bias, %v4_conv_0_zero_x, %v4_conv_0_zero_y, %v4_conv_0_scale, padding=[0, 0, 0, 0]) /* from_string */ /* ty=Tensor[(1, 48, 32, 32), int32] */;
  %21 = nn.mcutruncate(%20) /* from_string */ /* ty=Tensor[(1, 48, 32, 32), int8] */;
  %22 = nn.mcuconv2d(%21, %v4_conv_1_weight, %v4_conv_1_bias, %v4_conv_1_zero_x, %v4_conv_1_zero_y, %v4_conv_1_scale, strides=[2, 2], padding=[3, 3, 3, 3], groups=48) /* from_string */ /* ty=Tensor[(1, 48, 16, 16), int32] */;
  %23 = nn.mcutruncate(%22) /* from_string */ /* ty=Tensor[(1, 48, 16, 16), int8] */;
  %24 = nn.mcuconv2d(%23, %v4_conv_2_weight, %v4_conv_2_bias, %v4_conv_2_zero_x, %v4_conv_2_zero_y, %v4_conv_2_scale, padding=[0, 0, 0, 0]) /* from_string */ /* ty=Tensor[(1, 24, 16, 16), int32] */;
  %25 = nn.mcutruncate(%24) /* from_string */ /* ty=Tensor[(1, 24, 16, 16), int8] */;
  %26 = nn.mcuconv2d(%25, %v5_conv_0_weight, %v5_conv_0_bias, %v5_conv_0_zero_x, %v5_conv_0_zero_y, %v5_conv_0_scale, padding=[0, 0, 0, 0]) /* from_string */ /* ty=Tensor[(1, 120, 16, 16), int32] */;
  %27 = nn.mcutruncate(%26) /* from_string */ /* ty=Tensor[(1, 120, 16, 16), int8] */;
  %28 = nn.mcuconv2d(%27, %v5_conv_1_weight, %v5_conv_1_bias, %v5_conv_1_zero_x, %v5_conv_1_zero_y, %v5_conv_1_scale, padding=[1, 1, 1, 1], groups=120) /* from_string */ /* ty=Tensor[(1, 120, 16, 16), int32] */;
  %29 = nn.mcutruncate(%28) /* from_string */ /* ty=Tensor[(1, 120, 16, 16), int8] */;
  %30 = nn.mcuconv2d(%29, %v5_conv_2_weight, %v5_conv_2_bias, %v5_conv_2_zero_x, %v5_conv_2_zero_y, %v5_conv_2_scale, padding=[0, 0, 0, 0]) /* from_string */ /* ty=Tensor[(1, 24, 16, 16), int32] */;
  %31 = nn.mcutruncate(%30) /* from_string */ /* ty=Tensor[(1, 24, 16, 16), int8] */;
  %32 = nn.mcuadd(%25, %31, %v5_qadd_zero_x1, %v5_qadd_zero_x2, %v5_qadd_scale_x1, %v5_qadd_scale_x2, %v5_qadd_zero_y, %v5_qadd_scale_y, axis=0) /* from_string */ /* ty=Tensor[(1, 24, 16, 16), int8] */;
  %33 = nn.mcutruncate(%32) /* from_string */ /* ty=Tensor[(1, 24, 16, 16), int8] */;
  %34 = nn.mcuconv2d(%33, %v6_conv_0_weight, %v6_conv_0_bias, %v6_conv_0_zero_x, %v6_conv_0_zero_y, %v6_conv_0_scale, padding=[0, 0, 0, 0]) /* from_string */ /* ty=Tensor[(1, 120, 16, 16), int32] */;
  %35 = nn.mcutruncate(%34) /* from_string */ /* ty=Tensor[(1, 120, 16, 16), int8] */;
  %36 = nn.mcuconv2d(%35, %v6_conv_1_weight, %v6_conv_1_bias, %v6_conv_1_zero_x, %v6_conv_1_zero_y, %v6_conv_1_scale, strides=[2, 2], padding=[1, 1, 1, 1], groups=120) /* from_string */ /* ty=Tensor[(1, 120, 8, 8), int32] */;
  %37 = nn.mcutruncate(%36) /* from_string */ /* ty=Tensor[(1, 120, 8, 8), int8] */;
  %38 = nn.mcuconv2d(%37, %v6_conv_2_weight, %v6_conv_2_bias, %v6_conv_2_zero_x, %v6_conv_2_zero_y, %v6_conv_2_scale, padding=[0, 0, 0, 0]) /* from_string */ /* ty=Tensor[(1, 40, 8, 8), int32] */;
  %39 = nn.mcutruncate(%38) /* from_string */ /* ty=Tensor[(1, 40, 8, 8), int8] */;
  %40 = nn.mcuconv2d(%39, %v7_conv_0_weight, %v7_conv_0_bias, %v7_conv_0_zero_x, %v7_conv_0_zero_y, %v7_conv_0_scale, padding=[0, 0, 0, 0]) /* from_string */ /* ty=Tensor[(1, 160, 8, 8), int32] */;
  %41 = nn.mcutruncate(%40) /* from_string */ /* ty=Tensor[(1, 160, 8, 8), int8] */;
  %42 = nn.mcuconv2d(%41, %v7_conv_1_weight, %v7_conv_1_bias, %v7_conv_1_zero_x, %v7_conv_1_zero_y, %v7_conv_1_scale, padding=[3, 3, 3, 3], groups=160) /* from_string */ /* ty=Tensor[(1, 160, 8, 8), int32] */;
  %43 = nn.mcutruncate(%42) /* from_string */ /* ty=Tensor[(1, 160, 8, 8), int8] */;
  %44 = nn.mcuconv2d(%43, %v7_conv_2_weight, %v7_conv_2_bias, %v7_conv_2_zero_x, %v7_conv_2_zero_y, %v7_conv_2_scale, padding=[0, 0, 0, 0]) /* from_string */ /* ty=Tensor[(1, 40, 8, 8), int32] */;
  %45 = nn.mcutruncate(%44) /* from_string */ /* ty=Tensor[(1, 40, 8, 8), int8] */;
  %46 = nn.mcuadd(%39, %45, %v7_qadd_zero_x1, %v7_qadd_zero_x2, %v7_qadd_scale_x1, %v7_qadd_scale_x2, %v7_qadd_zero_y, %v7_qadd_scale_y, axis=0) /* from_string */ /* ty=Tensor[(1, 40, 8, 8), int8] */;
  %47 = nn.mcutruncate(%46) /* from_string */ /* ty=Tensor[(1, 40, 8, 8), int8] */;
  %48 = nn.mcuconv2d(%47, %v8_conv_0_weight, %v8_conv_0_bias, %v8_conv_0_zero_x, %v8_conv_0_zero_y, %v8_conv_0_scale, padding=[0, 0, 0, 0]) /* from_string */ /* ty=Tensor[(1, 160, 8, 8), int32] */;
  %49 = nn.mcutruncate(%48) /* from_string */ /* ty=Tensor[(1, 160, 8, 8), int8] */;
  %50 = nn.mcuconv2d(%49, %v8_conv_1_weight, %v8_conv_1_bias, %v8_conv_1_zero_x, %v8_conv_1_zero_y, %v8_conv_1_scale, padding=[2, 2, 2, 2], groups=160) /* from_string */ /* ty=Tensor[(1, 160, 8, 8), int32] */;
  %51 = nn.mcutruncate(%50) /* from_string */ /* ty=Tensor[(1, 160, 8, 8), int8] */;
  %52 = nn.mcuconv2d(%51, %v8_conv_2_weight, %v8_conv_2_bias, %v8_conv_2_zero_x, %v8_conv_2_zero_y, %v8_conv_2_scale, padding=[0, 0, 0, 0]) /* from_string */ /* ty=Tensor[(1, 48, 8, 8), int32] */;
  %53 = nn.mcutruncate(%52) /* from_string */ /* ty=Tensor[(1, 48, 8, 8), int8] */;
  %54 = nn.mcuconv2d(%53, %v9_conv_0_weight, %v9_conv_0_bias, %v9_conv_0_zero_x, %v9_conv_0_zero_y, %v9_conv_0_scale, padding=[0, 0, 0, 0]) /* from_string */ /* ty=Tensor[(1, 144, 8, 8), int32] */;
  %55 = nn.mcutruncate(%54) /* from_string */ /* ty=Tensor[(1, 144, 8, 8), int8] */;
  %56 = nn.mcuconv2d(%55, %v9_conv_1_weight, %v9_conv_1_bias, %v9_conv_1_zero_x, %v9_conv_1_zero_y, %v9_conv_1_scale, padding=[1, 1, 1, 1], groups=144) /* from_string */ /* ty=Tensor[(1, 144, 8, 8), int32] */;
  %57 = nn.mcutruncate(%56) /* from_string */ /* ty=Tensor[(1, 144, 8, 8), int8] */;
  %58 = nn.mcuconv2d(%57, %v9_conv_2_weight, %v9_conv_2_bias, %v9_conv_2_zero_x, %v9_conv_2_zero_y, %v9_conv_2_scale, padding=[0, 0, 0, 0]) /* from_string */ /* ty=Tensor[(1, 48, 8, 8), int32] */;
  %59 = nn.mcutruncate(%58) /* from_string */ /* ty=Tensor[(1, 48, 8, 8), int8] */;
  %60 = nn.mcuadd(%53, %59, %v9_qadd_zero_x1, %v9_qadd_zero_x2, %v9_qadd_scale_x1, %v9_qadd_scale_x2, %v9_qadd_zero_y, %v9_qadd_scale_y, axis=0) /* from_string */ /* ty=Tensor[(1, 48, 8, 8), int8] */;
  %61 = nn.mcutruncate(%60) /* from_string */ /* ty=Tensor[(1, 48, 8, 8), int8] */;
  %62 = nn.mcuconv2d(%61, %v10_conv_0_weight, %v10_conv_0_bias, %v10_conv_0_zero_x, %v10_conv_0_zero_y, %v10_conv_0_scale, padding=[0, 0, 0, 0]) /* from_string */ /* ty=Tensor[(1, 192, 8, 8), int32] */;
  %63 = nn.mcutruncate(%62) /* from_string */ /* ty=Tensor[(1, 192, 8, 8), int8] */;
  %64 = nn.mcuconv2d(%63, %v10_conv_1_weight, %v10_conv_1_bias, %v10_conv_1_zero_x, %v10_conv_1_zero_y, %v10_conv_1_scale, padding=[1, 1, 1, 1], groups=192) /* from_string */ /* ty=Tensor[(1, 192, 8, 8), int32] */;
  %65 = nn.mcutruncate(%64) /* from_string */ /* ty=Tensor[(1, 192, 8, 8), int8] */;
  %66 = nn.mcuconv2d(%65, %v10_conv_2_weight, %v10_conv_2_bias, %v10_conv_2_zero_x, %v10_conv_2_zero_y, %v10_conv_2_scale, padding=[0, 0, 0, 0]) /* from_string */ /* ty=Tensor[(1, 48, 8, 8), int32] */;
  %67 = nn.mcutruncate(%66) /* from_string */ /* ty=Tensor[(1, 48, 8, 8), int8] */;
  %68 = nn.mcuadd(%61, %67, %v10_qadd_zero_x1, %v10_qadd_zero_x2, %v10_qadd_scale_x1, %v10_qadd_scale_x2, %v10_qadd_zero_y, %v10_qadd_scale_y, axis=0) /* from_string */ /* ty=Tensor[(1, 48, 8, 8), int8] */;
  %69 = nn.mcutruncate(%68) /* from_string */ /* ty=Tensor[(1, 48, 8, 8), int8] */;
  %70 = nn.mcuconv2d(%69, %v11_conv_0_weight, %v11_conv_0_bias, %v11_conv_0_zero_x, %v11_conv_0_zero_y, %v11_conv_0_scale, padding=[0, 0, 0, 0]) /* from_string */ /* ty=Tensor[(1, 240, 8, 8), int32] */;
  %71 = nn.mcutruncate(%70) /* from_string */ /* ty=Tensor[(1, 240, 8, 8), int8] */;
  %72 = nn.mcuconv2d(%71, %v11_conv_1_weight, %v11_conv_1_bias, %v11_conv_1_zero_x, %v11_conv_1_zero_y, %v11_conv_1_scale, strides=[2, 2], padding=[3, 3, 3, 3], groups=240) /* from_string */ /* ty=Tensor[(1, 240, 4, 4), int32] */;
  %73 = nn.mcutruncate(%72) /* from_string */ /* ty=Tensor[(1, 240, 4, 4), int8] */;
  %74 = nn.mcuconv2d(%73, %v11_conv_2_weight, %v11_conv_2_bias, %v11_conv_2_zero_x, %v11_conv_2_zero_y, %v11_conv_2_scale, padding=[0, 0, 0, 0]) /* from_string */ /* ty=Tensor[(1, 96, 4, 4), int32] */;
  %75 = nn.mcutruncate(%74) /* from_string */ /* ty=Tensor[(1, 96, 4, 4), int8] */;
  %76 = nn.mcuconv2d(%75, %v12_conv_0_weight, %v12_conv_0_bias, %v12_conv_0_zero_x, %v12_conv_0_zero_y, %v12_conv_0_scale, padding=[0, 0, 0, 0]) /* from_string */ /* ty=Tensor[(1, 384, 4, 4), int32] */;
  %77 = nn.mcutruncate(%76) /* from_string */ /* ty=Tensor[(1, 384, 4, 4), int8] */;
  %78 = nn.mcuconv2d(%77, %v12_conv_1_weight, %v12_conv_1_bias, %v12_conv_1_zero_x, %v12_conv_1_zero_y, %v12_conv_1_scale, padding=[2, 2, 2, 2], groups=384) /* from_string */ /* ty=Tensor[(1, 384, 4, 4), int32] */;
  %79 = nn.mcutruncate(%78) /* from_string */ /* ty=Tensor[(1, 384, 4, 4), int8] */;
  %80 = nn.mcuconv2d(%79, %v12_conv_2_weight, %v12_conv_2_bias, %v12_conv_2_zero_x, %v12_conv_2_zero_y, %v12_conv_2_scale, padding=[0, 0, 0, 0]) /* from_string */ /* ty=Tensor[(1, 96, 4, 4), int32] */;
  %81 = nn.mcutruncate(%80) /* from_string */ /* ty=Tensor[(1, 96, 4, 4), int8] */;
  %82 = nn.mcuadd(%75, %81, %v12_qadd_zero_x1, %v12_qadd_zero_x2, %v12_qadd_scale_x1, %v12_qadd_scale_x2, %v12_qadd_zero_y, %v12_qadd_scale_y, axis=0) /* from_string */ /* ty=Tensor[(1, 96, 4, 4), int8] */;
  %83 = nn.mcutruncate(%82) /* from_string */ /* ty=Tensor[(1, 96, 4, 4), int8] */;
  %84 = nn.mcuconv2d(%83, %v13_conv_0_weight, %v13_conv_0_bias, %v13_conv_0_zero_x, %v13_conv_0_zero_y, %v13_conv_0_scale, padding=[0, 0, 0, 0]) /* from_string */ /* ty=Tensor[(1, 384, 4, 4), int32] */;
  %85 = nn.mcutruncate(%84) /* from_string */ /* ty=Tensor[(1, 384, 4, 4), int8] */;
  %86 = nn.mcuconv2d(%85, %v13_conv_1_weight, %v13_conv_1_bias, %v13_conv_1_zero_x, %v13_conv_1_zero_y, %v13_conv_1_scale, padding=[2, 2, 2, 2], groups=384) /* from_string */ /* ty=Tensor[(1, 384, 4, 4), int32] */;
  %87 = nn.mcutruncate(%86) /* from_string */ /* ty=Tensor[(1, 384, 4, 4), int8] */;
  %88 = nn.mcuconv2d(%87, %v13_conv_2_weight, %v13_conv_2_bias, %v13_conv_2_zero_x, %v13_conv_2_zero_y, %v13_conv_2_scale, padding=[0, 0, 0, 0]) /* from_string */ /* ty=Tensor[(1, 96, 4, 4), int32] */;
  %89 = nn.mcutruncate(%88) /* from_string */ /* ty=Tensor[(1, 96, 4, 4), int8] */;
  %90 = nn.mcuadd(%83, %89, %v13_qadd_zero_x1, %v13_qadd_zero_x2, %v13_qadd_scale_x1, %v13_qadd_scale_x2, %v13_qadd_zero_y, %v13_qadd_scale_y, axis=0) /* from_string */ /* ty=Tensor[(1, 96, 4, 4), int8] */;
  %91 = nn.mcutruncate(%90) /* from_string */ /* ty=Tensor[(1, 96, 4, 4), int8] */;
  %92 = nn.mcuconv2d(%91, %v14_conv_0_weight, %v14_conv_0_bias, %v14_conv_0_zero_x, %v14_conv_0_zero_y, %v14_conv_0_scale, padding=[0, 0, 0, 0]) /* from_string */ /* ty=Tensor[(1, 576, 4, 4), int32] */;
  %93 = nn.mcutruncate(%92) /* from_string */ /* ty=Tensor[(1, 576, 4, 4), int8] */;
  %94 = nn.mcuconv2d(%93, %v14_conv_1_weight, %v14_conv_1_bias, %v14_conv_1_zero_x, %v14_conv_1_zero_y, %v14_conv_1_scale, padding=[1, 1, 1, 1], groups=576) /* from_string */ /* ty=Tensor[(1, 576, 4, 4), int32] */;
  %95 = nn.mcutruncate(%94) /* from_string */ /* ty=Tensor[(1, 576, 4, 4), int8] */;
  %96 = nn.mcuconv2d(%95, %v14_conv_2_weight, %v14_conv_2_bias, %v14_conv_2_zero_x, %v14_conv_2_zero_y, %v14_conv_2_scale, padding=[0, 0, 0, 0]) /* from_string */ /* ty=Tensor[(1, 160, 4, 4), int32] */;
  %97 = nn.mcutruncate(%96) /* from_string */ /* ty=Tensor[(1, 160, 4, 4), int8] */;
  %98 = mcumean(%97, axis=[2, 3], keepdims=True) /* from_string */ /* ty=Tensor[(1, 160, 1, 1), int8] */;
  %99 = nn.mcuconv2d(%98, %v15_weight, %v15_bias, %v15_zero_x, %v15_zero_y, %v15_scale, padding=[0, 0, 0, 0]) /* from_string */ /* ty=Tensor[(1, 10, 1, 1), int32] */;
  %100 = nn.mcutruncate(%99) /* from_string */ /* ty=Tensor[(1, 10, 1, 1), int8] */;
  %101 = reshape(%100, newshape=[0, 0]) /* from_string */ /* ty=Tensor[(1, 10), int8] */;
  %102 = cast(%101, dtype="float32") /* from_string */ /* ty=Tensor[(1, 10), float32] */;
  %103 = nn.log_softmax(%102) /* from_string */ /* ty=Tensor[(1, 10), float32] */;
  %104 = cast(%99, dtype="float32") /* from_string */ /* ty=Tensor[(1, 10, 1, 1), float32] */;
  %105 = greater_equal(%104, -128f /* ty=float32 */) /* from_string */ /* ty=Tensor[(1, 10, 1, 1), bool] */;
  %106 = less_equal(%104, 127f /* ty=float32 */) /* from_string */ /* ty=Tensor[(1, 10, 1, 1), bool] */;
  %107 = ones(shape=[], dtype="float32") /* from_string */ /* ty=float32 */;
  %108 = negative(%107) /* from_string */ /* ty=float32 */;
  %109 = multiply(%108, %label) /* from_string */ /* ty=Tensor[(1, 10), float32] */;
  %110 = sum(%109, axis=[-1], keepdims=True) /* from_string */ /* ty=Tensor[(1, 1), float32] */;
  %111 = exp(%103) /* from_string */ /* ty=Tensor[(1, 10), float32] */;
  %112 = multiply(%110, %111) /* from_string */ /* ty=Tensor[(1, 10), float32] */;
  %113 = subtract(%109, %112) /* from_string */ /* ty=Tensor[(1, 10), float32] */;
  %114 = multiply(%105, %106) /* from_string */ /* ty=Tensor[(1, 10, 1, 1), bool] */;
  %115 = reshape(%113, newshape=[1, 10, 1, 1]) /* from_string */ /* ty=Tensor[(1, 10, 1, 1), float32] */;
  %116 = zeros(shape=[1, 10, 1, 1], dtype="float32") /* from_string */ /* ty=Tensor[(1, 10, 1, 1), float32] */;
  %117 = where(%114, %115, %116) /* from_string */ /* ty=Tensor[(1, 10, 1, 1), float32] */;
  %118 = reshape(%v15_scale, newshape=[1, -1, 1, 1]) /* from_string */ /* ty=Tensor[(1, 10, 1, 1), float32] */;
  %119 = multiply(%117, %118) /* from_string */ /* ty=Tensor[(1, 10, 1, 1), float32] */;
  %120 = cast(%98, dtype="float32") /* from_string */ /* ty=Tensor[(1, 160, 1, 1), float32] */;
  %121 = tile(%119, reps=[1, 160, 1, 1]) /* from_string */ /* ty=Tensor[(1, 1600, 1, 1), float32] */;
  %122 = reshape(%120, newshape=[1, -1, 0, 0]) /* from_string */ /* ty=Tensor[(1, 160, 1, 1), float32] */;
  %123 = reshape(%121, newshape=[-1, 1, 0, 0]) /* from_string */ /* ty=Tensor[(1600, 1, 1, 1), float32] */;
  %124 = nn.conv2d(%122, %123, padding=[0, 0, 0, 0], groups=160) /* from_string */ /* ty=Tensor[(1, 1600, 1, 1), float32] */;
  %125 = reshape(%124, newshape=[1, 160, 10, 1, 1]) /* from_string */ /* ty=Tensor[(1, 160, 10, 1, 1), float32] */;
  %126 = sum(%125, axis=[0]) /* from_string */ /* ty=Tensor[(160, 10, 1, 1), float32] */;
  %127 = cast(%96, dtype="float32") /* from_string */ /* ty=Tensor[(1, 160, 4, 4), float32] */;
  %128 = greater_equal(%127, -128f /* ty=float32 */) /* from_string */ /* ty=Tensor[(1, 160, 4, 4), bool] */;
  %129 = less_equal(%127, 127f /* ty=float32 */) /* from_string */ /* ty=Tensor[(1, 160, 4, 4), bool] */;
  %130 = cast(%v15_weight, dtype="float32") /* from_string */ /* ty=Tensor[(10, 160, 1, 1), float32] */;
  %131 = nn.conv2d_transpose(%119, %130, channels=160, kernel_size=[1, 1], padding=[0, 0, 0, 0], kernel_layout="IOHW") /* from_string */ /* ty=Tensor[(1, 160, 1, 1), float32] */;
  %132 = multiply(%131, 0.0625f /* ty=float32 */) /* from_string */ /* ty=Tensor[(1, 160, 1, 1), float32] */;
  %133 = ones(shape=[1, 160, 4, 4], dtype="float32") /* from_string */ /* ty=Tensor[(1, 160, 4, 4), float32] */;
  %134 = multiply(%128, %129) /* from_string */ /* ty=Tensor[(1, 160, 4, 4), bool] */;
  %135 = multiply(%132, %133) /* from_string */ /* ty=Tensor[(1, 160, 4, 4), float32] */;
  %136 = zeros(shape=[1, 160, 4, 4], dtype="float32") /* from_string */ /* ty=Tensor[(1, 160, 4, 4), float32] */;
  %137 = where(%134, %135, %136) /* from_string */ /* ty=Tensor[(1, 160, 4, 4), float32] */;
  %138 = reshape(%v14_conv_2_scale, newshape=[1, -1, 1, 1]) /* from_string */ /* ty=Tensor[(1, 160, 1, 1), float32] */;
  %139 = multiply(%137, %138) /* from_string */ /* ty=Tensor[(1, 160, 4, 4), float32] */;
  %140 = cast(%94, dtype="float32") /* from_string */ /* ty=Tensor[(1, 576, 4, 4), float32] */;
  %141 = greater_equal(%140, -128f /* ty=float32 */) /* from_string */ /* ty=Tensor[(1, 576, 4, 4), bool] */;
  %142 = less_equal(%140, 127f /* ty=float32 */) /* from_string */ /* ty=Tensor[(1, 576, 4, 4), bool] */;
  %143 = cast(%v14_conv_2_weight, dtype="float32") /* from_string */ /* ty=Tensor[(160, 576, 1, 1), float32] */;
  %144 = multiply(%141, %142) /* from_string */ /* ty=Tensor[(1, 576, 4, 4), bool] */;
  %145 = nn.conv2d_transpose(%139, %143, channels=576, kernel_size=[1, 1], padding=[0, 0, 0, 0], kernel_layout="IOHW") /* from_string */ /* ty=Tensor[(1, 576, 4, 4), float32] */;
  %146 = zeros(shape=[1, 576, 4, 4], dtype="float32") /* from_string */ /* ty=Tensor[(1, 576, 4, 4), float32] */;
  %147 = where(%144, %145, %146) /* from_string */ /* ty=Tensor[(1, 576, 4, 4), float32] */;
  %148 = reshape(%v14_conv_1_scale, newshape=[1, -1, 1, 1]) /* from_string */ /* ty=Tensor[(1, 576, 1, 1), float32] */;
  %149 = multiply(%147, %148) /* from_string */ /* ty=Tensor[(1, 576, 4, 4), float32] */;
  %150 = cast(%92, dtype="float32") /* from_string */ /* ty=Tensor[(1, 576, 4, 4), float32] */;
  %151 = greater_equal(%150, -128f /* ty=float32 */) /* from_string */ /* ty=Tensor[(1, 576, 4, 4), bool] */;
  %152 = less_equal(%150, 127f /* ty=float32 */) /* from_string */ /* ty=Tensor[(1, 576, 4, 4), bool] */;
  %153 = cast(%v14_conv_1_weight, dtype="float32") /* from_string */ /* ty=Tensor[(576, 1, 3, 3), float32] */;
  %154 = multiply(%151, %152) /* from_string */ /* ty=Tensor[(1, 576, 4, 4), bool] */;
  %155 = nn.conv2d_transpose(%149, %153, channels=576, kernel_size=[3, 3], padding=[1, 1, 1, 1], groups=576, kernel_layout="IOHW") /* from_string */ /* ty=Tensor[(1, 576, 4, 4), float32] */;
  %156 = zeros(shape=[1, 576, 4, 4], dtype="float32") /* from_string */ /* ty=Tensor[(1, 576, 4, 4), float32] */;
  %157 = where(%154, %155, %156) /* from_string */ /* ty=Tensor[(1, 576, 4, 4), float32] */;
  %158 = reshape(%v14_conv_0_scale, newshape=[1, -1, 1, 1]) /* from_string */ /* ty=Tensor[(1, 576, 1, 1), float32] */;
  %159 = multiply(%157, %158) /* from_string */ /* ty=Tensor[(1, 576, 4, 4), float32] */;
  %160 = cast(%91, dtype="float32") /* from_string */ /* ty=Tensor[(1, 96, 4, 4), float32] */;
  %161 = strided_slice(%160, begin=[0, 0, 0, 0], end=[1, 48, 4, 4], strides=[1], axes=None) /* from_string */ /* ty=Tensor[(1, 48, 4, 4), float32] */;
  %162 = tile(%159, reps=[1, 48, 1, 1]) /* from_string */ /* ty=Tensor[(1, 27648, 4, 4), float32] */;
  %163 = reshape(%161, newshape=[1, -1, 0, 0]) /* from_string */ /* ty=Tensor[(1, 48, 4, 4), float32] */;
  %164 = reshape(%162, newshape=[-1, 1, 0, 0]) /* from_string */ /* ty=Tensor[(27648, 1, 4, 4), float32] */;
  %165 = nn.conv2d(%163, %164, padding=[0, 0, 0, 0], groups=48) /* from_string */ /* ty=Tensor[(1, 27648, 1, 1), float32] */;
  %166 = reshape(%165, newshape=[1, 48, 576, 1, 1]) /* from_string */ /* ty=Tensor[(1, 48, 576, 1, 1), float32] */;
  %167 = sum(%166, axis=[0]) /* from_string */ /* ty=Tensor[(48, 576, 1, 1), float32] */;
  %168 = cast(%88, dtype="float32") /* from_string */ /* ty=Tensor[(1, 96, 4, 4), float32] */;
  %169 = greater_equal(%168, -128f /* ty=float32 */) /* from_string */ /* ty=Tensor[(1, 96, 4, 4), bool] */;
  %170 = less_equal(%168, 127f /* ty=float32 */) /* from_string */ /* ty=Tensor[(1, 96, 4, 4), bool] */;
  %171 = cast(%90, dtype="float32") /* from_string */ /* ty=Tensor[(1, 96, 4, 4), float32] */;
  %172 = greater_equal(%171, -128f /* ty=float32 */) /* from_string */ /* ty=Tensor[(1, 96, 4, 4), bool] */;
  %173 = less_equal(%171, 127f /* ty=float32 */) /* from_string */ /* ty=Tensor[(1, 96, 4, 4), bool] */;
  %174 = cast(%v14_conv_0_weight, dtype="float32") /* from_string */ /* ty=Tensor[(576, 96, 1, 1), float32] */;
  %175 = multiply(%172, %173) /* from_string */ /* ty=Tensor[(1, 96, 4, 4), bool] */;
  %176 = nn.conv2d_transpose(%159, %174, channels=96, kernel_size=[1, 1], padding=[0, 0, 0, 0], kernel_layout="IOHW") /* from_string */ /* ty=Tensor[(1, 96, 4, 4), float32] */;
  %177 = zeros(shape=[1, 96, 4, 4], dtype="float32") /* from_string */ /* ty=Tensor[(1, 96, 4, 4), float32] */;
  %178 = where(%175, %176, %177) /* from_string */ /* ty=Tensor[(1, 96, 4, 4), float32] */;
  %179 = reshape(%v13_qadd_scale_y, newshape=[1, -1, 1, 1]) /* from_string */ /* ty=Tensor[(1, 1, 1, 1), float32] */;
  %180 = divide(%178, %179) /* from_string */ /* ty=Tensor[(1, 96, 4, 4), float32] */;
  %181 = reshape(%v13_qadd_scale_x2, newshape=[1, -1, 1, 1]) /* from_string */ /* ty=Tensor[(1, 1, 1, 1), float32] */;
  %182 = multiply(%169, %170) /* from_string */ /* ty=Tensor[(1, 96, 4, 4), bool] */;
  %183 = multiply(%180, %181) /* from_string */ /* ty=Tensor[(1, 96, 4, 4), float32] */;
  %184 = zeros(shape=[1, 96, 4, 4], dtype="float32") /* from_string */ /* ty=Tensor[(1, 96, 4, 4), float32] */;
  %185 = where(%182, %183, %184) /* from_string */ /* ty=Tensor[(1, 96, 4, 4), float32] */;
  %186 = reshape(%v13_conv_2_scale, newshape=[1, -1, 1, 1]) /* from_string */ /* ty=Tensor[(1, 96, 1, 1), float32] */;
  %187 = multiply(%185, %186) /* from_string */ /* ty=Tensor[(1, 96, 4, 4), float32] */;
  %188 = cast(%86, dtype="float32") /* from_string */ /* ty=Tensor[(1, 384, 4, 4), float32] */;
  %189 = greater_equal(%188, -128f /* ty=float32 */) /* from_string */ /* ty=Tensor[(1, 384, 4, 4), bool] */;
  %190 = less_equal(%188, 127f /* ty=float32 */) /* from_string */ /* ty=Tensor[(1, 384, 4, 4), bool] */;
  %191 = cast(%v13_conv_2_weight, dtype="float32") /* from_string */ /* ty=Tensor[(96, 384, 1, 1), float32] */;
  %192 = multiply(%189, %190) /* from_string */ /* ty=Tensor[(1, 384, 4, 4), bool] */;
  %193 = nn.conv2d_transpose(%187, %191, channels=384, kernel_size=[1, 1], padding=[0, 0, 0, 0], kernel_layout="IOHW") /* from_string */ /* ty=Tensor[(1, 384, 4, 4), float32] */;
  %194 = zeros(shape=[1, 384, 4, 4], dtype="float32") /* from_string */ /* ty=Tensor[(1, 384, 4, 4), float32] */;
  %195 = where(%192, %193, %194) /* from_string */ /* ty=Tensor[(1, 384, 4, 4), float32] */;
  %196 = reshape(%v13_conv_1_scale, newshape=[1, -1, 1, 1]) /* from_string */ /* ty=Tensor[(1, 384, 1, 1), float32] */;
  %197 = multiply(%195, %196) /* from_string */ /* ty=Tensor[(1, 384, 4, 4), float32] */;
  %198 = cast(%84, dtype="float32") /* from_string */ /* ty=Tensor[(1, 384, 4, 4), float32] */;
  %199 = greater_equal(%198, -128f /* ty=float32 */) /* from_string */ /* ty=Tensor[(1, 384, 4, 4), bool] */;
  %200 = less_equal(%198, 127f /* ty=float32 */) /* from_string */ /* ty=Tensor[(1, 384, 4, 4), bool] */;
  %201 = cast(%v13_conv_1_weight, dtype="float32") /* from_string */ /* ty=Tensor[(384, 1, 5, 5), float32] */;
  %202 = multiply(%199, %200) /* from_string */ /* ty=Tensor[(1, 384, 4, 4), bool] */;
  %203 = nn.conv2d_transpose(%197, %201, channels=384, kernel_size=[5, 5], padding=[2, 2, 2, 2], groups=384, kernel_layout="IOHW") /* from_string */ /* ty=Tensor[(1, 384, 4, 4), float32] */;
  %204 = zeros(shape=[1, 384, 4, 4], dtype="float32") /* from_string */ /* ty=Tensor[(1, 384, 4, 4), float32] */;
  %205 = where(%202, %203, %204) /* from_string */ /* ty=Tensor[(1, 384, 4, 4), float32] */;
  %206 = reshape(%v13_conv_0_scale, newshape=[1, -1, 1, 1]) /* from_string */ /* ty=Tensor[(1, 384, 1, 1), float32] */;
  %207 = multiply(%205, %206) /* from_string */ /* ty=Tensor[(1, 384, 4, 4), float32] */;
  %208 = cast(%83, dtype="float32") /* from_string */ /* ty=Tensor[(1, 96, 4, 4), float32] */;
  %209 = tile(%207, reps=[1, 96, 1, 1]) /* from_string */ /* ty=Tensor[(1, 36864, 4, 4), float32] */;
  %210 = reshape(%208, newshape=[1, -1, 0, 0]) /* from_string */ /* ty=Tensor[(1, 96, 4, 4), float32] */;
  %211 = reshape(%209, newshape=[-1, 1, 0, 0]) /* from_string */ /* ty=Tensor[(36864, 1, 4, 4), float32] */;
  %212 = nn.conv2d(%210, %211, padding=[0, 0, 0, 0], groups=96) /* from_string */ /* ty=Tensor[(1, 36864, 1, 1), float32] */;
  %213 = reshape(%212, newshape=[1, 96, 384, 1, 1]) /* from_string */ /* ty=Tensor[(1, 96, 384, 1, 1), float32] */;
  %214 = sum(%213, axis=[0]) /* from_string */ /* ty=Tensor[(96, 384, 1, 1), float32] */;
  %215 = cast(%80, dtype="float32") /* from_string */ /* ty=Tensor[(1, 96, 4, 4), float32] */;
  %216 = greater_equal(%215, -128f /* ty=float32 */) /* from_string */ /* ty=Tensor[(1, 96, 4, 4), bool] */;
  %217 = less_equal(%215, 127f /* ty=float32 */) /* from_string */ /* ty=Tensor[(1, 96, 4, 4), bool] */;
  %218 = cast(%82, dtype="float32") /* from_string */ /* ty=Tensor[(1, 96, 4, 4), float32] */;
  %219 = greater_equal(%218, -128f /* ty=float32 */) /* from_string */ /* ty=Tensor[(1, 96, 4, 4), bool] */;
  %220 = less_equal(%218, 127f /* ty=float32 */) /* from_string */ /* ty=Tensor[(1, 96, 4, 4), bool] */;
  %221 = cast(%v13_conv_0_weight, dtype="float32") /* from_string */ /* ty=Tensor[(384, 96, 1, 1), float32] */;
  %222 = multiply(%219, %220) /* from_string */ /* ty=Tensor[(1, 96, 4, 4), bool] */;
  %223 = nn.conv2d_transpose(%207, %221, channels=96, kernel_size=[1, 1], padding=[0, 0, 0, 0], kernel_layout="IOHW") /* from_string */ /* ty=Tensor[(1, 96, 4, 4), float32] */;
  %224 = zeros(shape=[1, 96, 4, 4], dtype="float32") /* from_string */ /* ty=Tensor[(1, 96, 4, 4), float32] */;
  %225 = where(%222, %223, %224) /* from_string */ /* ty=Tensor[(1, 96, 4, 4), float32] */;
  %226 = reshape(%v12_qadd_scale_y, newshape=[1, -1, 1, 1]) /* from_string */ /* ty=Tensor[(1, 1, 1, 1), float32] */;
  %227 = divide(%225, %226) /* from_string */ /* ty=Tensor[(1, 96, 4, 4), float32] */;
  %228 = reshape(%v12_qadd_scale_x2, newshape=[1, -1, 1, 1]) /* from_string */ /* ty=Tensor[(1, 1, 1, 1), float32] */;
  %229 = multiply(%216, %217) /* from_string */ /* ty=Tensor[(1, 96, 4, 4), bool] */;
  %230 = multiply(%227, %228) /* from_string */ /* ty=Tensor[(1, 96, 4, 4), float32] */;
  %231 = zeros(shape=[1, 96, 4, 4], dtype="float32") /* from_string */ /* ty=Tensor[(1, 96, 4, 4), float32] */;
  %232 = where(%229, %230, %231) /* from_string */ /* ty=Tensor[(1, 96, 4, 4), float32] */;
  %233 = reshape(%v12_conv_2_scale, newshape=[1, -1, 1, 1]) /* from_string */ /* ty=Tensor[(1, 96, 1, 1), float32] */;
  %234 = multiply(%232, %233) /* from_string */ /* ty=Tensor[(1, 96, 4, 4), float32] */;
  %235 = cast(%78, dtype="float32") /* from_string */ /* ty=Tensor[(1, 384, 4, 4), float32] */;
  %236 = greater_equal(%235, -128f /* ty=float32 */) /* from_string */ /* ty=Tensor[(1, 384, 4, 4), bool] */;
  %237 = less_equal(%235, 127f /* ty=float32 */) /* from_string */ /* ty=Tensor[(1, 384, 4, 4), bool] */;
  %238 = cast(%v12_conv_2_weight, dtype="float32") /* from_string */ /* ty=Tensor[(96, 384, 1, 1), float32] */;
  %239 = multiply(%236, %237) /* from_string */ /* ty=Tensor[(1, 384, 4, 4), bool] */;
  %240 = nn.conv2d_transpose(%234, %238, channels=384, kernel_size=[1, 1], padding=[0, 0, 0, 0], kernel_layout="IOHW") /* from_string */ /* ty=Tensor[(1, 384, 4, 4), float32] */;
  %241 = zeros(shape=[1, 384, 4, 4], dtype="float32") /* from_string */ /* ty=Tensor[(1, 384, 4, 4), float32] */;
  %242 = where(%239, %240, %241) /* from_string */ /* ty=Tensor[(1, 384, 4, 4), float32] */;
  %243 = reshape(%v12_conv_1_scale, newshape=[1, -1, 1, 1]) /* from_string */ /* ty=Tensor[(1, 384, 1, 1), float32] */;
  %244 = multiply(%242, %243) /* from_string */ /* ty=Tensor[(1, 384, 4, 4), float32] */;
  %245 = cast(%76, dtype="float32") /* from_string */ /* ty=Tensor[(1, 384, 4, 4), float32] */;
  %246 = greater_equal(%245, -128f /* ty=float32 */) /* from_string */ /* ty=Tensor[(1, 384, 4, 4), bool] */;
  %247 = less_equal(%245, 127f /* ty=float32 */) /* from_string */ /* ty=Tensor[(1, 384, 4, 4), bool] */;
  %248 = cast(%v12_conv_1_weight, dtype="float32") /* from_string */ /* ty=Tensor[(384, 1, 5, 5), float32] */;
  %249 = multiply(%246, %247) /* from_string */ /* ty=Tensor[(1, 384, 4, 4), bool] */;
  %250 = nn.conv2d_transpose(%244, %248, channels=384, kernel_size=[5, 5], padding=[2, 2, 2, 2], groups=384, kernel_layout="IOHW") /* from_string */ /* ty=Tensor[(1, 384, 4, 4), float32] */;
  %251 = zeros(shape=[1, 384, 4, 4], dtype="float32") /* from_string */ /* ty=Tensor[(1, 384, 4, 4), float32] */;
  %252 = where(%249, %250, %251) /* from_string */ /* ty=Tensor[(1, 384, 4, 4), float32] */;
  %253 = reshape(%v12_conv_0_scale, newshape=[1, -1, 1, 1]) /* from_string */ /* ty=Tensor[(1, 384, 1, 1), float32] */;
  %254 = multiply(%252, %253) /* from_string */ /* ty=Tensor[(1, 384, 4, 4), float32] */;
  %255 = cast(%74, dtype="float32") /* from_string */ /* ty=Tensor[(1, 96, 4, 4), float32] */;
  %256 = greater_equal(%255, -128f /* ty=float32 */) /* from_string */ /* ty=Tensor[(1, 96, 4, 4), bool] */;
  %257 = less_equal(%255, 127f /* ty=float32 */) /* from_string */ /* ty=Tensor[(1, 96, 4, 4), bool] */;
  %258 = cast(%v12_conv_0_weight, dtype="float32") /* from_string */ /* ty=Tensor[(384, 96, 1, 1), float32] */;
  %259 = multiply(%256, %257) /* from_string */ /* ty=Tensor[(1, 96, 4, 4), bool] */;
  %260 = nn.conv2d_transpose(%254, %258, channels=96, kernel_size=[1, 1], padding=[0, 0, 0, 0], kernel_layout="IOHW") /* from_string */ /* ty=Tensor[(1, 96, 4, 4), float32] */;
  %261 = zeros(shape=[1, 96, 4, 4], dtype="float32") /* from_string */ /* ty=Tensor[(1, 96, 4, 4), float32] */;
  %262 = where(%259, %260, %261) /* from_string */ /* ty=Tensor[(1, 96, 4, 4), float32] */;
  %263 = reshape(%v11_conv_2_scale, newshape=[1, -1, 1, 1]) /* from_string */ /* ty=Tensor[(1, 96, 1, 1), float32] */;
  %264 = multiply(%262, %263) /* from_string */ /* ty=Tensor[(1, 96, 4, 4), float32] */;
  %265 = cast(%72, dtype="float32") /* from_string */ /* ty=Tensor[(1, 240, 4, 4), float32] */;
  %266 = greater_equal(%265, -128f /* ty=float32 */) /* from_string */ /* ty=Tensor[(1, 240, 4, 4), bool] */;
  %267 = less_equal(%265, 127f /* ty=float32 */) /* from_string */ /* ty=Tensor[(1, 240, 4, 4), bool] */;
  %268 = cast(%v11_conv_2_weight, dtype="float32") /* from_string */ /* ty=Tensor[(96, 240, 1, 1), float32] */;
  %269 = multiply(%266, %267) /* from_string */ /* ty=Tensor[(1, 240, 4, 4), bool] */;
  %270 = nn.conv2d_transpose(%264, %268, channels=240, kernel_size=[1, 1], padding=[0, 0, 0, 0], kernel_layout="IOHW") /* from_string */ /* ty=Tensor[(1, 240, 4, 4), float32] */;
  %271 = zeros(shape=[1, 240, 4, 4], dtype="float32") /* from_string */ /* ty=Tensor[(1, 240, 4, 4), float32] */;
  %272 = where(%269, %270, %271) /* from_string */ /* ty=Tensor[(1, 240, 4, 4), float32] */;
  %273 = reshape(%v11_conv_1_scale, newshape=[1, -1, 1, 1]) /* from_string */ /* ty=Tensor[(1, 240, 1, 1), float32] */;
  %274 = multiply(%272, %273) /* from_string */ /* ty=Tensor[(1, 240, 4, 4), float32] */;
  %275 = cast(%70, dtype="float32") /* from_string */ /* ty=Tensor[(1, 240, 8, 8), float32] */;
  %276 = greater_equal(%275, -128f /* ty=float32 */) /* from_string */ /* ty=Tensor[(1, 240, 8, 8), bool] */;
  %277 = less_equal(%275, 127f /* ty=float32 */) /* from_string */ /* ty=Tensor[(1, 240, 8, 8), bool] */;
  %278 = cast(%v11_conv_1_weight, dtype="float32") /* from_string */ /* ty=Tensor[(240, 1, 7, 7), float32] */;
  %279 = multiply(%276, %277) /* from_string */ /* ty=Tensor[(1, 240, 8, 8), bool] */;
  %280 = nn.conv2d_transpose(%274, %278, channels=240, kernel_size=[7, 7], strides=[2, 2], output_padding=[1, 1], padding=[3, 3, 3, 3], groups=240, kernel_layout="IOHW") /* from_string */ /* ty=Tensor[(1, 240, 8, 8), float32] */;
  %281 = zeros(shape=[1, 240, 8, 8], dtype="float32") /* from_string */ /* ty=Tensor[(1, 240, 8, 8), float32] */;
  %282 = where(%279, %280, %281) /* from_string */ /* ty=Tensor[(1, 240, 8, 8), float32] */;
  %283 = reshape(%v11_conv_0_scale, newshape=[1, -1, 1, 1]) /* from_string */ /* ty=Tensor[(1, 240, 1, 1), float32] */;
  %284 = multiply(%282, %283) /* from_string */ /* ty=Tensor[(1, 240, 8, 8), float32] */;
  %285 = cast(%69, dtype="float32") /* from_string */ /* ty=Tensor[(1, 48, 8, 8), float32] */;
  %286 = tile(%284, reps=[1, 48, 1, 1]) /* from_string */ /* ty=Tensor[(1, 11520, 8, 8), float32] */;
  %287 = reshape(%285, newshape=[1, -1, 0, 0]) /* from_string */ /* ty=Tensor[(1, 48, 8, 8), float32] */;
  %288 = reshape(%286, newshape=[-1, 1, 0, 0]) /* from_string */ /* ty=Tensor[(11520, 1, 8, 8), float32] */;
  %289 = nn.conv2d(%287, %288, padding=[0, 0, 0, 0], groups=48) /* from_string */ /* ty=Tensor[(1, 11520, 1, 1), float32] */;
  %290 = reshape(%289, newshape=[1, 48, 240, 1, 1]) /* from_string */ /* ty=Tensor[(1, 48, 240, 1, 1), float32] */;
  %291 = sum(%290, axis=[0]) /* from_string */ /* ty=Tensor[(48, 240, 1, 1), float32] */;
  %292 = cast(%66, dtype="float32") /* from_string */ /* ty=Tensor[(1, 48, 8, 8), float32] */;
  %293 = greater_equal(%292, -128f /* ty=float32 */) /* from_string */ /* ty=Tensor[(1, 48, 8, 8), bool] */;
  %294 = less_equal(%292, 127f /* ty=float32 */) /* from_string */ /* ty=Tensor[(1, 48, 8, 8), bool] */;
  %295 = cast(%68, dtype="float32") /* from_string */ /* ty=Tensor[(1, 48, 8, 8), float32] */;
  %296 = greater_equal(%295, -128f /* ty=float32 */) /* from_string */ /* ty=Tensor[(1, 48, 8, 8), bool] */;
  %297 = less_equal(%295, 127f /* ty=float32 */) /* from_string */ /* ty=Tensor[(1, 48, 8, 8), bool] */;
  %298 = cast(%v11_conv_0_weight, dtype="float32") /* from_string */ /* ty=Tensor[(240, 48, 1, 1), float32] */;
  %299 = multiply(%296, %297) /* from_string */ /* ty=Tensor[(1, 48, 8, 8), bool] */;
  %300 = nn.conv2d_transpose(%284, %298, channels=48, kernel_size=[1, 1], padding=[0, 0, 0, 0], kernel_layout="IOHW") /* from_string */ /* ty=Tensor[(1, 48, 8, 8), float32] */;
  %301 = zeros(shape=[1, 48, 8, 8], dtype="float32") /* from_string */ /* ty=Tensor[(1, 48, 8, 8), float32] */;
  %302 = where(%299, %300, %301) /* from_string */ /* ty=Tensor[(1, 48, 8, 8), float32] */;
  %303 = reshape(%v10_qadd_scale_y, newshape=[1, -1, 1, 1]) /* from_string */ /* ty=Tensor[(1, 1, 1, 1), float32] */;
  %304 = divide(%302, %303) /* from_string */ /* ty=Tensor[(1, 48, 8, 8), float32] */;
  %305 = reshape(%v10_qadd_scale_x2, newshape=[1, -1, 1, 1]) /* from_string */ /* ty=Tensor[(1, 1, 1, 1), float32] */;
  %306 = multiply(%293, %294) /* from_string */ /* ty=Tensor[(1, 48, 8, 8), bool] */;
  %307 = multiply(%304, %305) /* from_string */ /* ty=Tensor[(1, 48, 8, 8), float32] */;
  %308 = zeros(shape=[1, 48, 8, 8], dtype="float32") /* from_string */ /* ty=Tensor[(1, 48, 8, 8), float32] */;
  %309 = where(%306, %307, %308) /* from_string */ /* ty=Tensor[(1, 48, 8, 8), float32] */;
  %310 = reshape(%v10_conv_2_scale, newshape=[1, -1, 1, 1]) /* from_string */ /* ty=Tensor[(1, 48, 1, 1), float32] */;
  %311 = multiply(%309, %310) /* from_string */ /* ty=Tensor[(1, 48, 8, 8), float32] */;
  %312 = cast(%64, dtype="float32") /* from_string */ /* ty=Tensor[(1, 192, 8, 8), float32] */;
  %313 = greater_equal(%312, -128f /* ty=float32 */) /* from_string */ /* ty=Tensor[(1, 192, 8, 8), bool] */;
  %314 = less_equal(%312, 127f /* ty=float32 */) /* from_string */ /* ty=Tensor[(1, 192, 8, 8), bool] */;
  %315 = cast(%v10_conv_2_weight, dtype="float32") /* from_string */ /* ty=Tensor[(48, 192, 1, 1), float32] */;
  %316 = multiply(%313, %314) /* from_string */ /* ty=Tensor[(1, 192, 8, 8), bool] */;
  %317 = nn.conv2d_transpose(%311, %315, channels=192, kernel_size=[1, 1], padding=[0, 0, 0, 0], kernel_layout="IOHW") /* from_string */ /* ty=Tensor[(1, 192, 8, 8), float32] */;
  %318 = zeros(shape=[1, 192, 8, 8], dtype="float32") /* from_string */ /* ty=Tensor[(1, 192, 8, 8), float32] */;
  %319 = where(%316, %317, %318) /* from_string */ /* ty=Tensor[(1, 192, 8, 8), float32] */;
  %320 = reshape(%v10_conv_1_scale, newshape=[1, -1, 1, 1]) /* from_string */ /* ty=Tensor[(1, 192, 1, 1), float32] */;
  %321 = multiply(%319, %320) /* from_string */ /* ty=Tensor[(1, 192, 8, 8), float32] */;
  %322 = cast(%62, dtype="float32") /* from_string */ /* ty=Tensor[(1, 192, 8, 8), float32] */;
  %323 = greater_equal(%322, -128f /* ty=float32 */) /* from_string */ /* ty=Tensor[(1, 192, 8, 8), bool] */;
  %324 = less_equal(%322, 127f /* ty=float32 */) /* from_string */ /* ty=Tensor[(1, 192, 8, 8), bool] */;
  %325 = cast(%v10_conv_1_weight, dtype="float32") /* from_string */ /* ty=Tensor[(192, 1, 3, 3), float32] */;
  %326 = multiply(%323, %324) /* from_string */ /* ty=Tensor[(1, 192, 8, 8), bool] */;
  %327 = nn.conv2d_transpose(%321, %325, channels=192, kernel_size=[3, 3], padding=[1, 1, 1, 1], groups=192, kernel_layout="IOHW") /* from_string */ /* ty=Tensor[(1, 192, 8, 8), float32] */;
  %328 = zeros(shape=[1, 192, 8, 8], dtype="float32") /* from_string */ /* ty=Tensor[(1, 192, 8, 8), float32] */;
  %329 = where(%326, %327, %328) /* from_string */ /* ty=Tensor[(1, 192, 8, 8), float32] */;
  %330 = reshape(%v10_conv_0_scale, newshape=[1, -1, 1, 1]) /* from_string */ /* ty=Tensor[(1, 192, 1, 1), float32] */;
  %331 = multiply(%329, %330) /* from_string */ /* ty=Tensor[(1, 192, 8, 8), float32] */;
  %332 = cast(%61, dtype="float32") /* from_string */ /* ty=Tensor[(1, 48, 8, 8), float32] */;
  %333 = tile(%331, reps=[1, 48, 1, 1]) /* from_string */ /* ty=Tensor[(1, 9216, 8, 8), float32] */;
  %334 = reshape(%332, newshape=[1, -1, 0, 0]) /* from_string */ /* ty=Tensor[(1, 48, 8, 8), float32] */;
  %335 = reshape(%333, newshape=[-1, 1, 0, 0]) /* from_string */ /* ty=Tensor[(9216, 1, 8, 8), float32] */;
  %336 = nn.conv2d(%334, %335, padding=[0, 0, 0, 0], groups=48) /* from_string */ /* ty=Tensor[(1, 9216, 1, 1), float32] */;
  %337 = reshape(%336, newshape=[1, 48, 192, 1, 1]) /* from_string */ /* ty=Tensor[(1, 48, 192, 1, 1), float32] */;
  %338 = sum(%337, axis=[0]) /* from_string */ /* ty=Tensor[(48, 192, 1, 1), float32] */;
  %339 = cast(%58, dtype="float32") /* from_string */ /* ty=Tensor[(1, 48, 8, 8), float32] */;
  %340 = greater_equal(%339, -128f /* ty=float32 */) /* from_string */ /* ty=Tensor[(1, 48, 8, 8), bool] */;
  %341 = less_equal(%339, 127f /* ty=float32 */) /* from_string */ /* ty=Tensor[(1, 48, 8, 8), bool] */;
  %342 = cast(%60, dtype="float32") /* from_string */ /* ty=Tensor[(1, 48, 8, 8), float32] */;
  %343 = greater_equal(%342, -128f /* ty=float32 */) /* from_string */ /* ty=Tensor[(1, 48, 8, 8), bool] */;
  %344 = less_equal(%342, 127f /* ty=float32 */) /* from_string */ /* ty=Tensor[(1, 48, 8, 8), bool] */;
  %345 = cast(%v10_conv_0_weight, dtype="float32") /* from_string */ /* ty=Tensor[(192, 48, 1, 1), float32] */;
  %346 = multiply(%343, %344) /* from_string */ /* ty=Tensor[(1, 48, 8, 8), bool] */;
  %347 = nn.conv2d_transpose(%331, %345, channels=48, kernel_size=[1, 1], padding=[0, 0, 0, 0], kernel_layout="IOHW") /* from_string */ /* ty=Tensor[(1, 48, 8, 8), float32] */;
  %348 = zeros(shape=[1, 48, 8, 8], dtype="float32") /* from_string */ /* ty=Tensor[(1, 48, 8, 8), float32] */;
  %349 = where(%346, %347, %348) /* from_string */ /* ty=Tensor[(1, 48, 8, 8), float32] */;
  %350 = reshape(%v9_qadd_scale_y, newshape=[1, -1, 1, 1]) /* from_string */ /* ty=Tensor[(1, 1, 1, 1), float32] */;
  %351 = divide(%349, %350) /* from_string */ /* ty=Tensor[(1, 48, 8, 8), float32] */;
  %352 = reshape(%v9_qadd_scale_x2, newshape=[1, -1, 1, 1]) /* from_string */ /* ty=Tensor[(1, 1, 1, 1), float32] */;
  %353 = multiply(%340, %341) /* from_string */ /* ty=Tensor[(1, 48, 8, 8), bool] */;
  %354 = multiply(%351, %352) /* from_string */ /* ty=Tensor[(1, 48, 8, 8), float32] */;
  %355 = zeros(shape=[1, 48, 8, 8], dtype="float32") /* from_string */ /* ty=Tensor[(1, 48, 8, 8), float32] */;
  %356 = where(%353, %354, %355) /* from_string */ /* ty=Tensor[(1, 48, 8, 8), float32] */;
  %357 = reshape(%v9_conv_2_scale, newshape=[1, -1, 1, 1]) /* from_string */ /* ty=Tensor[(1, 48, 1, 1), float32] */;
  %358 = multiply(%356, %357) /* from_string */ /* ty=Tensor[(1, 48, 8, 8), float32] */;
  %359 = cast(%56, dtype="float32") /* from_string */ /* ty=Tensor[(1, 144, 8, 8), float32] */;
  %360 = greater_equal(%359, -128f /* ty=float32 */) /* from_string */ /* ty=Tensor[(1, 144, 8, 8), bool] */;
  %361 = less_equal(%359, 127f /* ty=float32 */) /* from_string */ /* ty=Tensor[(1, 144, 8, 8), bool] */;
  %362 = cast(%v9_conv_2_weight, dtype="float32") /* from_string */ /* ty=Tensor[(48, 144, 1, 1), float32] */;
  %363 = multiply(%360, %361) /* from_string */ /* ty=Tensor[(1, 144, 8, 8), bool] */;
  %364 = nn.conv2d_transpose(%358, %362, channels=144, kernel_size=[1, 1], padding=[0, 0, 0, 0], kernel_layout="IOHW") /* from_string */ /* ty=Tensor[(1, 144, 8, 8), float32] */;
  %365 = zeros(shape=[1, 144, 8, 8], dtype="float32") /* from_string */ /* ty=Tensor[(1, 144, 8, 8), float32] */;
  %366 = where(%363, %364, %365) /* from_string */ /* ty=Tensor[(1, 144, 8, 8), float32] */;
  %367 = reshape(%v9_conv_1_scale, newshape=[1, -1, 1, 1]) /* from_string */ /* ty=Tensor[(1, 144, 1, 1), float32] */;
  %368 = multiply(%366, %367) /* from_string */ /* ty=Tensor[(1, 144, 8, 8), float32] */;
  %369 = cast(%54, dtype="float32") /* from_string */ /* ty=Tensor[(1, 144, 8, 8), float32] */;
  %370 = greater_equal(%369, -128f /* ty=float32 */) /* from_string */ /* ty=Tensor[(1, 144, 8, 8), bool] */;
  %371 = less_equal(%369, 127f /* ty=float32 */) /* from_string */ /* ty=Tensor[(1, 144, 8, 8), bool] */;
  %372 = cast(%v9_conv_1_weight, dtype="float32") /* from_string */ /* ty=Tensor[(144, 1, 3, 3), float32] */;
  %373 = multiply(%370, %371) /* from_string */ /* ty=Tensor[(1, 144, 8, 8), bool] */;
  %374 = nn.conv2d_transpose(%368, %372, channels=144, kernel_size=[3, 3], padding=[1, 1, 1, 1], groups=144, kernel_layout="IOHW") /* from_string */ /* ty=Tensor[(1, 144, 8, 8), float32] */;
  %375 = zeros(shape=[1, 144, 8, 8], dtype="float32") /* from_string */ /* ty=Tensor[(1, 144, 8, 8), float32] */;
  %376 = where(%373, %374, %375) /* from_string */ /* ty=Tensor[(1, 144, 8, 8), float32] */;
  %377 = reshape(%v9_conv_0_scale, newshape=[1, -1, 1, 1]) /* from_string */ /* ty=Tensor[(1, 144, 1, 1), float32] */;
  %378 = multiply(%376, %377) /* from_string */ /* ty=Tensor[(1, 144, 8, 8), float32] */;
  %379 = cast(%53, dtype="float32") /* from_string */ /* ty=Tensor[(1, 48, 8, 8), float32] */;
  %380 = tile(%378, reps=[1, 48, 1, 1]) /* from_string */ /* ty=Tensor[(1, 6912, 8, 8), float32] */;
  %381 = reshape(%379, newshape=[1, -1, 0, 0]) /* from_string */ /* ty=Tensor[(1, 48, 8, 8), float32] */;
  %382 = reshape(%380, newshape=[-1, 1, 0, 0]) /* from_string */ /* ty=Tensor[(6912, 1, 8, 8), float32] */;
  %383 = nn.conv2d(%381, %382, padding=[0, 0, 0, 0], groups=48) /* from_string */ /* ty=Tensor[(1, 6912, 1, 1), float32] */;
  %384 = reshape(%383, newshape=[1, 48, 144, 1, 1]) /* from_string */ /* ty=Tensor[(1, 48, 144, 1, 1), float32] */;
  %385 = sum(%384, axis=[0]) /* from_string */ /* ty=Tensor[(48, 144, 1, 1), float32] */;
  %386 = cast(%52, dtype="float32") /* from_string */ /* ty=Tensor[(1, 48, 8, 8), float32] */;
  %387 = greater_equal(%386, -128f /* ty=float32 */) /* from_string */ /* ty=Tensor[(1, 48, 8, 8), bool] */;
  %388 = less_equal(%386, 127f /* ty=float32 */) /* from_string */ /* ty=Tensor[(1, 48, 8, 8), bool] */;
  %389 = cast(%v9_conv_0_weight, dtype="float32") /* from_string */ /* ty=Tensor[(144, 48, 1, 1), float32] */;
  %390 = multiply(%387, %388) /* from_string */ /* ty=Tensor[(1, 48, 8, 8), bool] */;
  %391 = nn.conv2d_transpose(%378, %389, channels=48, kernel_size=[1, 1], padding=[0, 0, 0, 0], kernel_layout="IOHW") /* from_string */ /* ty=Tensor[(1, 48, 8, 8), float32] */;
  %392 = zeros(shape=[1, 48, 8, 8], dtype="float32") /* from_string */ /* ty=Tensor[(1, 48, 8, 8), float32] */;
  %393 = where(%390, %391, %392) /* from_string */ /* ty=Tensor[(1, 48, 8, 8), float32] */;
  %394 = reshape(%v8_conv_2_scale, newshape=[1, -1, 1, 1]) /* from_string */ /* ty=Tensor[(1, 48, 1, 1), float32] */;
  %395 = multiply(%393, %394) /* from_string */ /* ty=Tensor[(1, 48, 8, 8), float32] */;
  %396 = cast(%50, dtype="float32") /* from_string */ /* ty=Tensor[(1, 160, 8, 8), float32] */;
  %397 = greater_equal(%396, -128f /* ty=float32 */) /* from_string */ /* ty=Tensor[(1, 160, 8, 8), bool] */;
  %398 = less_equal(%396, 127f /* ty=float32 */) /* from_string */ /* ty=Tensor[(1, 160, 8, 8), bool] */;
  %399 = cast(%v8_conv_2_weight, dtype="float32") /* from_string */ /* ty=Tensor[(48, 160, 1, 1), float32] */;
  %400 = multiply(%397, %398) /* from_string */ /* ty=Tensor[(1, 160, 8, 8), bool] */;
  %401 = nn.conv2d_transpose(%395, %399, channels=160, kernel_size=[1, 1], padding=[0, 0, 0, 0], kernel_layout="IOHW") /* from_string */ /* ty=Tensor[(1, 160, 8, 8), float32] */;
  %402 = zeros(shape=[1, 160, 8, 8], dtype="float32") /* from_string */ /* ty=Tensor[(1, 160, 8, 8), float32] */;
  %403 = where(%400, %401, %402) /* from_string */ /* ty=Tensor[(1, 160, 8, 8), float32] */;
  %404 = reshape(%v8_conv_1_scale, newshape=[1, -1, 1, 1]) /* from_string */ /* ty=Tensor[(1, 160, 1, 1), float32] */;
  %405 = multiply(%403, %404) /* from_string */ /* ty=Tensor[(1, 160, 8, 8), float32] */;
  %406 = cast(%48, dtype="float32") /* from_string */ /* ty=Tensor[(1, 160, 8, 8), float32] */;
  %407 = greater_equal(%406, -128f /* ty=float32 */) /* from_string */ /* ty=Tensor[(1, 160, 8, 8), bool] */;
  %408 = less_equal(%406, 127f /* ty=float32 */) /* from_string */ /* ty=Tensor[(1, 160, 8, 8), bool] */;
  %409 = cast(%v8_conv_1_weight, dtype="float32") /* from_string */ /* ty=Tensor[(160, 1, 5, 5), float32] */;
  %410 = multiply(%407, %408) /* from_string */ /* ty=Tensor[(1, 160, 8, 8), bool] */;
  %411 = nn.conv2d_transpose(%405, %409, channels=160, kernel_size=[5, 5], padding=[2, 2, 2, 2], groups=160, kernel_layout="IOHW") /* from_string */ /* ty=Tensor[(1, 160, 8, 8), float32] */;
  %412 = zeros(shape=[1, 160, 8, 8], dtype="float32") /* from_string */ /* ty=Tensor[(1, 160, 8, 8), float32] */;
  %413 = where(%410, %411, %412) /* from_string */ /* ty=Tensor[(1, 160, 8, 8), float32] */;
  %414 = reshape(%v8_conv_0_scale, newshape=[1, -1, 1, 1]) /* from_string */ /* ty=Tensor[(1, 160, 1, 1), float32] */;
  %415 = multiply(%413, %414) /* from_string */ /* ty=Tensor[(1, 160, 8, 8), float32] */;
  %416 = cast(%47, dtype="float32") /* from_string */ /* ty=Tensor[(1, 40, 8, 8), float32] */;
  %417 = tile(%415, reps=[1, 40, 1, 1]) /* from_string */ /* ty=Tensor[(1, 6400, 8, 8), float32] */;
  %418 = reshape(%416, newshape=[1, -1, 0, 0]) /* from_string */ /* ty=Tensor[(1, 40, 8, 8), float32] */;
  %419 = reshape(%417, newshape=[-1, 1, 0, 0]) /* from_string */ /* ty=Tensor[(6400, 1, 8, 8), float32] */;
  %420 = nn.conv2d(%418, %419, padding=[0, 0, 0, 0], groups=40) /* from_string */ /* ty=Tensor[(1, 6400, 1, 1), float32] */;
  %421 = reshape(%420, newshape=[1, 40, 160, 1, 1]) /* from_string */ /* ty=Tensor[(1, 40, 160, 1, 1), float32] */;
  %422 = sum(%421, axis=[0]) /* from_string */ /* ty=Tensor[(40, 160, 1, 1), float32] */;
  %423 = cast(%44, dtype="float32") /* from_string */ /* ty=Tensor[(1, 40, 8, 8), float32] */;
  %424 = greater_equal(%423, -128f /* ty=float32 */) /* from_string */ /* ty=Tensor[(1, 40, 8, 8), bool] */;
  %425 = less_equal(%423, 127f /* ty=float32 */) /* from_string */ /* ty=Tensor[(1, 40, 8, 8), bool] */;
  %426 = cast(%46, dtype="float32") /* from_string */ /* ty=Tensor[(1, 40, 8, 8), float32] */;
  %427 = greater_equal(%426, -128f /* ty=float32 */) /* from_string */ /* ty=Tensor[(1, 40, 8, 8), bool] */;
  %428 = less_equal(%426, 127f /* ty=float32 */) /* from_string */ /* ty=Tensor[(1, 40, 8, 8), bool] */;
  %429 = cast(%v8_conv_0_weight, dtype="float32") /* from_string */ /* ty=Tensor[(160, 40, 1, 1), float32] */;
  %430 = multiply(%427, %428) /* from_string */ /* ty=Tensor[(1, 40, 8, 8), bool] */;
  %431 = nn.conv2d_transpose(%415, %429, channels=40, kernel_size=[1, 1], padding=[0, 0, 0, 0], kernel_layout="IOHW") /* from_string */ /* ty=Tensor[(1, 40, 8, 8), float32] */;
  %432 = zeros(shape=[1, 40, 8, 8], dtype="float32") /* from_string */ /* ty=Tensor[(1, 40, 8, 8), float32] */;
  %433 = where(%430, %431, %432) /* from_string */ /* ty=Tensor[(1, 40, 8, 8), float32] */;
  %434 = reshape(%v7_qadd_scale_y, newshape=[1, -1, 1, 1]) /* from_string */ /* ty=Tensor[(1, 1, 1, 1), float32] */;
  %435 = divide(%433, %434) /* from_string */ /* ty=Tensor[(1, 40, 8, 8), float32] */;
  %436 = reshape(%v7_qadd_scale_x2, newshape=[1, -1, 1, 1]) /* from_string */ /* ty=Tensor[(1, 1, 1, 1), float32] */;
  %437 = multiply(%424, %425) /* from_string */ /* ty=Tensor[(1, 40, 8, 8), bool] */;
  %438 = multiply(%435, %436) /* from_string */ /* ty=Tensor[(1, 40, 8, 8), float32] */;
  %439 = zeros(shape=[1, 40, 8, 8], dtype="float32") /* from_string */ /* ty=Tensor[(1, 40, 8, 8), float32] */;
  %440 = where(%437, %438, %439) /* from_string */ /* ty=Tensor[(1, 40, 8, 8), float32] */;
  %441 = reshape(%v7_conv_2_scale, newshape=[1, -1, 1, 1]) /* from_string */ /* ty=Tensor[(1, 40, 1, 1), float32] */;
  %442 = multiply(%440, %441) /* from_string */ /* ty=Tensor[(1, 40, 8, 8), float32] */;
  %443 = cast(%42, dtype="float32") /* from_string */ /* ty=Tensor[(1, 160, 8, 8), float32] */;
  %444 = greater_equal(%443, -128f /* ty=float32 */) /* from_string */ /* ty=Tensor[(1, 160, 8, 8), bool] */;
  %445 = less_equal(%443, 127f /* ty=float32 */) /* from_string */ /* ty=Tensor[(1, 160, 8, 8), bool] */;
  %446 = cast(%v7_conv_2_weight, dtype="float32") /* from_string */ /* ty=Tensor[(40, 160, 1, 1), float32] */;
  %447 = multiply(%444, %445) /* from_string */ /* ty=Tensor[(1, 160, 8, 8), bool] */;
  %448 = nn.conv2d_transpose(%442, %446, channels=160, kernel_size=[1, 1], padding=[0, 0, 0, 0], kernel_layout="IOHW") /* from_string */ /* ty=Tensor[(1, 160, 8, 8), float32] */;
  %449 = zeros(shape=[1, 160, 8, 8], dtype="float32") /* from_string */ /* ty=Tensor[(1, 160, 8, 8), float32] */;
  %450 = where(%447, %448, %449) /* from_string */ /* ty=Tensor[(1, 160, 8, 8), float32] */;
  %451 = reshape(%v7_conv_1_scale, newshape=[1, -1, 1, 1]) /* from_string */ /* ty=Tensor[(1, 160, 1, 1), float32] */;
  %452 = multiply(%450, %451) /* from_string */ /* ty=Tensor[(1, 160, 8, 8), float32] */;
  %453 = nn.cross_entropy_with_logits(%103, %label) /* from_string */ /* ty=float32 */;
  %454 = sum(%119, axis=[1], exclude=True) /* from_string */ /* ty=Tensor[(10), float32] */;
  %455 = transpose(%126, axes=[1, 0, 2, 3]) /* from_string */ /* ty=Tensor[(10, 160, 1, 1), float32] */;
  %456 = sum(%139, axis=[1], exclude=True) /* from_string */ /* ty=Tensor[(160), float32] */;
  %457 = sum(%149, axis=[1], exclude=True) /* from_string */ /* ty=Tensor[(576), float32] */;
  %458 = sum(%159, axis=[1], exclude=True) /* from_string */ /* ty=Tensor[(576), float32] */;
  %459 = transpose(%167, axes=[1, 0, 2, 3]) /* from_string */ /* ty=Tensor[(576, 48, 1, 1), float32] */;
  %460 = sum(%187, axis=[1], exclude=True) /* from_string */ /* ty=Tensor[(96), float32] */;
  %461 = sum(%197, axis=[1], exclude=True) /* from_string */ /* ty=Tensor[(384), float32] */;
  %462 = sum(%207, axis=[1], exclude=True) /* from_string */ /* ty=Tensor[(384), float32] */;
  %463 = transpose(%214, axes=[1, 0, 2, 3]) /* from_string */ /* ty=Tensor[(384, 96, 1, 1), float32] */;
  %464 = sum(%234, axis=[1], exclude=True) /* from_string */ /* ty=Tensor[(96), float32] */;
  %465 = sum(%244, axis=[1], exclude=True) /* from_string */ /* ty=Tensor[(384), float32] */;
  %466 = sum(%254, axis=[1], exclude=True) /* from_string */ /* ty=Tensor[(384), float32] */;
  %467 = sum(%264, axis=[1], exclude=True) /* from_string */ /* ty=Tensor[(96), float32] */;
  %468 = sum(%274, axis=[1], exclude=True) /* from_string */ /* ty=Tensor[(240), float32] */;
  %469 = sum(%284, axis=[1], exclude=True) /* from_string */ /* ty=Tensor[(240), float32] */;
  %470 = transpose(%291, axes=[1, 0, 2, 3]) /* from_string */ /* ty=Tensor[(240, 48, 1, 1), float32] */;
  %471 = sum(%311, axis=[1], exclude=True) /* from_string */ /* ty=Tensor[(48), float32] */;
  %472 = sum(%321, axis=[1], exclude=True) /* from_string */ /* ty=Tensor[(192), float32] */;
  %473 = sum(%331, axis=[1], exclude=True) /* from_string */ /* ty=Tensor[(192), float32] */;
  %474 = transpose(%338, axes=[1, 0, 2, 3]) /* from_string */ /* ty=Tensor[(192, 48, 1, 1), float32] */;
  %475 = sum(%358, axis=[1], exclude=True) /* from_string */ /* ty=Tensor[(48), float32] */;
  %476 = sum(%368, axis=[1], exclude=True) /* from_string */ /* ty=Tensor[(144), float32] */;
  %477 = sum(%378, axis=[1], exclude=True) /* from_string */ /* ty=Tensor[(144), float32] */;
  %478 = transpose(%385, axes=[1, 0, 2, 3]) /* from_string */ /* ty=Tensor[(144, 48, 1, 1), float32] */;
  %479 = sum(%395, axis=[1], exclude=True) /* from_string */ /* ty=Tensor[(48), float32] */;
  %480 = sum(%405, axis=[1], exclude=True) /* from_string */ /* ty=Tensor[(160), float32] */;
  %481 = sum(%415, axis=[1], exclude=True) /* from_string */ /* ty=Tensor[(160), float32] */;
  %482 = transpose(%422, axes=[1, 0, 2, 3]) /* from_string */ /* ty=Tensor[(160, 40, 1, 1), float32] */;
  %483 = sum(%442, axis=[1], exclude=True) /* from_string */ /* ty=Tensor[(40), float32] */;
  %484 = sum(%452, axis=[1], exclude=True) /* from_string */ /* ty=Tensor[(160), float32] */;
  (%453, %454, %455, %456, %457, %458, %459, %460, %461, %462, %463, %464, %465, %466, %467, %468, %469, %470, %471, %472, %473, %474, %475, %476, %477, %478, %479, %480, %481, %482, %483, %484)
}